systemClassificationByRDF_model.pt (torch_old, 317954 bytes, 8 tensors)

fc1.weight f4 [64, 1099]
0	0xbc6cef02	-0.014461281
1	0x3cd7a7f6	0.026325207
2	0xbbd7771c	-0.0065754782
3	0x3c9c33c4	0.019067653
4	0xbb789900	-0.0037932992
5	0x3ca21174	0.019783713
6	0x3ad13cc0	0.001596354
7	0x3b1543a0	0.0022775903
8	0x3b874bb8	0.0041288994
9	0xbc1f42bc	-0.009720501
10	0x3cb15ce8	0.021650746
11	0x3bb3a350	0.005482115
12	0x3ca9bc34	0.020719625
13	0x3be2f390	0.0069260076
14	0x3bfcb040	0.0077114403
15	0x3c2ef9a4	0.010679636
16	0xbb7319d0	-0.0037094243
17	0xbc9c1838	-0.019054517
18	0xbc9924f4	-0.018694378
19	0xbcce7023	-0.025199955
20	0x3bcfaf88	0.0063380636
21	0xbcaaf2d1	-0.020867737
22	0x39c828c0	0.00038177334
23	0xbc1dcc70	-0.009631261
24	0x3bdedce0	0.0068012327
25	0x3c122be8	0.008921601
26	0xbc317d06	-0.010833031
27	0xbcd8acc5	-0.02644957
28	0x3c0e38e4	0.008680556
29	0xbba64bec	-0.0050749686
30	0xbcf5261d	-0.0299254
31	0xbca3e0ba	-0.020004619
32	0x3c1f7ff0	0.0097350925
33	0xbc89b66a	-0.016810615
34	0xbcec4595	-0.028841773
35	0xbb96c32c	-0.004600903
36	0xbcedde9e	-0.029036816
37	0x3ac17580	0.0014759749
38	0xb99ffc40	-0.00030514784
39	0x3ccd712e	0.025078382
40	0xbc001ee4	-0.007819865
41	0x3ca7ebbc	0.02049815
42	0xbcf15381	-0.029458763
43	0x3ca76d34	0.020437814
44	0x3cbde384	0.023179777
45	0xbc1f6ce0	-0.009730548
46	0x3be2ecf8	0.0069252215
47	0xbc0b9522	-0.008519443
48	0xbc66b3d6	-0.014080962
49	0x3cca3ee2	0.024688188
50	0xbb251c70	-0.0025193952
51	0xbcd11830	-0.025524229
52	0xbcaee204	-0.021348007
53	0xbc961c35	-0.018323997
54	0xbbd40054	-0.0064697657
55	0x3bbdb850	0.005789794
56	0x3b1b6610	0.0023711957
57	0x3cf45b3c	0.02982866
58	0xbcb4078c	-0.021976255
59	0x3b947578	0.004530605
60	0x3b605180	0.0034228265
61	0x3c4d0790	0.01251401
62	0xba55e4e0	-0.000815941
63	0x3c692698	0.014230393
64	0x3c99d072	0.018776152
65	0x3b9bed78	0.004758533
66	0x3c805fe2	0.01567072
67	0x3b0b06e0	0.0021213815
68	0x3cb68512	0.02228025
69	0x3c325158	0.010883652
70	0x39585300	0.00020630285
71	0x3c468094	0.012115616
72	0x3c8c468a	0.01712348
73	0xbc8725c9	-0.01649751
74	0x3c5b1370	0.0133713335
75	0xbcac9e74	-0.02107165
76	0x3c03e75c	0.008050766
77	0x3bc5fe68	0.0060422905
78	0xbc120578	-0.008912437
79	0x3c162c54	0.009165842
80	0x3c89f4ea	0.016840417
81	0x3b70ca00	0.0036741495
82	0x3ca01712	0.01954225
83	0xbc8fa782	-0.017535929
84	0x3caeb68a	0.021327276
85	0xbb9d37e8	-0.0047979243
86	0x39657200	0.0002188161
87	0xbc06c926	-0.008226668
88	0xbcd82a9a	-0.026387502
89	0xbc81c49c	-0.015840821
90	0x3c49fbb4	0.012328077
91	0xbcafb38a	-0.021447916
92	0x3c7b1ca0	0.015326649
93	0xbbc26cb8	-0.0059333704
94	0xbcc9d50a	-0.024637718
95	0x3bbc13d8	0.0057396702
96	0x3cccc83a	0.02499782
97	0xbc7f1c04	-0.015570644
98	0x3cd93aea	0.02651735
99	0xbcf5f6fd	-0.030025
100	0xbb554cb8	-0.0032546949
101	0xbb876684	-0.004132094
102	0x3b0180a0	0.0019760504
103	0xbc41afe0	-0.011821717
104	0x3c3aae68	0.011394121
105	0xbadb2080	-0.001671806
106	0xbc83b907	-0.016079439
107	0x3b88e008	0.004177097
108	0x3ce1240a	0.027483005
109	0xbcb9aa00	-0.02266407
110	0xbb9ceb28	-0.004788775
111	0xbbd4b720	-0.0064915568
112	0xbcb8489a	-0.022495557
113	0x3c9d4c7e	0.019201513
114	0xbc368ba4	-0.011141691
115	0xbb10e880	-0.0022111237
116	0x3cb7c472	0.02243254
117	0x3ca92eae	0.020652141
118	0x3cd24af0	0.025670499
119	0xbbc948dc	-0.0061427187
120	0xbc9e2594	-0.019305028
121	0x3c2e0b88	0.010622866
122	0x3beae360	0.0071682185
123	0x3c441068	0.011966802
124	0xbb6a6700	-0.003576696
125	0x3d9a6312	0.075384274
126	0x3cea7398	0.028619573
127	0x3d935aa7	0.07195025
128	0x3ddf4fc5	0.10903887
129	0x3d19b2fc	0.03752421
130	0xbd82dde8	-0.063899815
131	0x3d04660c	0.032323882
132	0x3d6a23ae	0.057162933
133	0xbbdeddde	-0.006801351
134	0x3cf593f2	0.029977772
135	0xbd8a5997	-0.06755369
136	0xbd028f73	-0.031875085
137	0xbd6f0c54	-0.058361366
138	0xbdb9e847	-0.090775065
139	0x3c70acce	0.014689637
140	0xbcb73f23	-0.022368973
141	0xbcc7d7cb	-0.02439489
142	0xbbc01a1b	-0.005862487
143	0x3ce830ab	0.02834352
144	0xbb02cf20	-0.0019959882
145	0x3d8c59ea	0.06853087
146	0x3d70f930	0.058831394
147	0xbdd8536d	-0.10562787
148	0x3d497796	0.04918631
149	0x3c6f4825	0.014604603
150	0x3d44c032	0.048034854
151	0x3d88ee76	0.06686108
152	0x3d25803c	0.040405497
153	0x3c9bd2f1	0.019021483
154	0x3cd764f1	0.02629325
155	0xbc2608df	-0.010133951
156	0x3d5fca86	0.0546365
157	0xbd30ad5a	-0.04313407
158	0xbd28dc61	-0.041225795
159	0xbcdfa185	-0.027298698
160	0xbdefeb1f	-0.11714768
161	0x3cede8b6	0.02904163
162	0xbe00e8bd	-0.12588783
163	0xbd37ec6d	-0.044903208
164	0x3c8dc8fd	0.017307753
165	0x3c89b51b	0.01680999
166	0x3dc59c5c	0.09648964
167	0x3d1be118	0.038056463
168	0xbda65b7b	-0.08122917
169	0xbc1c9839	-0.009557777
170	0x3c7d0774	0.0154436715
171	0xbdb557e1	-0.08854652
172	0xbd6c0c27	-0.057628777
173	0x3d865e55	0.06560961
174	0xbc86c745	-0.016452441
175	0x3d1da9ca	0.038492
176	0x3d092a31	0.033487502
177	0xbe089243	-0.13337044
178	0xbd0cd075	-0.034378488
179	0x3b4ff871	0.0031733776
180	0xbd1bb5c6	-0.03801515
181	0xbdb6d16b	-0.08926662
182	0xbd61bf0a	-0.05511383
183	0xbce697e6	-0.028148603
184	0xbe281237	-0.16413198
185	0x3b99e06d	0.004695943
186	0x3d46752c	0.048451588
187	0x3c91de54	0.01780621
188	0xbd9befe3	-0.07614114
189	0xbd0a0457	-0.033695545
190	0x3d344854	0.04401429
191	0xbe0b020d	-0.13575001
192	0x3d42ad3d	0.047528494
193	0x3c8b9874	0.017040469
194	0x3ba678cc	0.005080318
195	0x3c9c430c	0.01907494
196	0xbc26a484	-0.0101710595
197	0x3da11db7	0.07866996
198	0x3d9c4762	0.07630803
199	0x3cbf6ce8	0.02336736
200	0x3e271c1e	0.1631932
201	0x3d7e7b4f	0.062129315
202	0xbdd7dda1	-0.10540319
203	0x3b74a44d	0.0037329376
204	0x3d29ac83	0.041424286
205	0x3d6a980f	0.05727392
206	0x3d60f522	0.054921277
207	0x3c53d8a0	0.012930065
208	0xbdb4cbbf	-0.08827924
209	0x3d30bac8	0.04314688
210	0xbdd607e0	-0.10450721
211	0xbd9584dc	-0.073007315
212	0x3d87fea2	0.06640364
213	0x3b8ed969	0.0043594134
214	0x3d3f7d42	0.046750315
215	0x3c577102	0.013149502
216	0x3ce08521	0.02740723
217	0x3ce9179b	0.028453639
218	0xbe5a4851	-0.21316649
219	0xbe02a26f	-0.12757276
220	0xbbc9cfae	-0.0061587906
221	0xbe27fa50	-0.1640408
222	0x3a7a7a57	0.0009554973
223	0x3d6bc640	0.057562113
224	0xbce83aa9	-0.028348284
225	0x3b1a2848	0.0023522545
226	0xbdb0fb9e	-0.08641742
227	0xbdb91806	-0.09037785
228	0x3d515be6	0.05111303
229	0xbca8d446	-0.020609032
230	0xbe2705b8	-0.16310775
231	0x3cede0f2	0.029037926
232	0xbb6b064b	-0.0035861905
233	0x3bda402d	0.0066604824
234	0xbdc876a7	-0.09788256
235	0x3c656834	0.014001895
236	0x3c5600c8	0.01306171
237	0xbcf94cf4	-0.030432202
238	0x3d3f8b1a	0.046763517
239	0x3d3d96bb	0.046286326
240	0x3c007ca6	0.0078422185
241	0x3d2355c1	0.039876703
242	0x3d3c4d95	0.045972425
243	0xbe7a1218	-0.24420965
244	0x3c540ca2	0.012942465
245	0xbcbdda91	-0.02317551
246	0xbba203cd	-0.0049443007
247	0xbc81609e	-0.015793141
248	0xbdc11dc4	-0.094295055
249	0xbc014baa	-0.007891575
250	0xbbdc8027	-0.006729144
251	0xbd370d38	-0.04469034
252	0x3d4c3c7d	0.049862374
253	0x3bffa935	0.0078021535
254	0xbcfdff90	-0.03100565
255	0xbc1c2c56	-0.009532055

fc1.bias f4 [64]
0	0x3a5eb221	0.0008495171
1	0xbd004a63	-0.03132094
2	0xbb674fd5	-0.0035295386
3	0x3c1a92e0	0.009434432
4	0x3cfd910c	0.030952953
5	0x3c4e438c	0.012589347
6	0xbd24d7c5	-0.040244836
7	0x3c8c5e48	0.0171348
8	0xbbea2cf1	-0.0071464707
9	0x3c68c6cf	0.014207556
10	0xbb45d814	-0.0030188607
11	0x3c194537	0.009354881
12	0xbc5d6a9a	-0.013514185
13	0xbcd7a3bd	-0.026323194
14	0x3ca04297	0.019563003
15	0x3d2dd377	0.042437997
16	0x3cb261e4	0.021775194
17	0x3c880cd2	0.016607676
18	0xbc8dfb9b	-0.017331889
19	0xba9317ec	-0.0011222339
20	0x3d7361aa	0.05941931
21	0xbccf33f8	-0.025293335
22	0xbccf3eb3	-0.025298452
23	0x3d21afb9	0.039474223
24	0xbc35e810	-0.011102691
25	0x3a9b5657	0.0011851293
26	0xbb72ce73	-0.0037049323
27	0x3c88f3e0	0.016717851
28	0xbc9d5f8c	-0.0192106
29	0x3a4f632b	0.00079112005
30	0xbbd5fa4d	-0.0065300823
31	0xba08edd4	-0.00052234274
32	0xbd1754db	-0.03694616
33	0x3b777128	0.0037756655
34	0x3c39bed8	0.011337005
35	0xbcd1c7c4	-0.025607951
36	0x3c96c86a	0.018406112
37	0x3d23e875	0.04001661
38	0xbbf14036	-0.007362391
39	0xbd0f0d7c	-0.03492497
40	0xbc235629	-0.009969273
41	0x3cc74fe3	0.024330085
42	0xbd120938	-0.035653323
43	0x3d0953f9	0.03352735
44	0x3bf495a9	0.00746413
45	0xbc16170c	-0.009160768
46	0xbd2697bc	-0.04067205
47	0xbc8fde8a	-0.01756217
48	0x3d1322a8	0.035921723
49	0x3b0ca88e	0.002146277
50	0x3a01ba83	0.0004948752
51	0xbc819712	-0.015819106
52	0xbbded486	-0.006800237
53	0x3bf7a585	0.0075575733
54	0x3c4b44ee	0.012406571
55	0x3d614b00	0.055003166
56	0xbd398864	-0.045296088
57	0xbd25275d	-0.040320743
58	0xbc68ed46	-0.014216727
59	0xbce83b91	-0.028348716
60	0x3d046a4a	0.032327928
61	0xbc5619ef	-0.0130677065
62	0x3b0f8dd3	0.0021904602
63	0x3bd5080e	0.0065012043

fc2.weight f4 [64, 64]
0	0x3d585c0f	0.05282217
1	0x3d2ec6d8	0.0426701
2	0x3959f343	0.00020785355
3	0xbdbdcba0	-0.09267354
4	0x3c72c4bd	0.014817414
5	0x3c513164	0.012768123
6	0x3cfe29f0	0.031025857
7	0x3dcf08f6	0.10109131
8	0xbd46e7f2	-0.048561044
9	0xbc577750	-0.013151005
10	0xbde3e153	-0.111269616
11	0xbdb4446c	-0.08802113
12	0x3d0885e4	0.033330813
13	0x3df23826	0.11827116
14	0x3d2c5c4e	0.042080216
15	0x3d43e898	0.04782924
16	0xbdecdb5a	-0.115652755
17	0xbd515aa4	-0.051111832
18	0xbe09ee4d	-0.13469811
19	0xbda63608	-0.081157744
20	0xbdf9cfd4	-0.12197843
21	0x3cdcf3c8	0.026971713
22	0x3c8afce8	0.016966298
23	0xbdad8ca8	-0.08474094
24	0xbdd683f2	-0.10474385
25	0xbdf88c39	-0.1213612
26	0x3d990157	0.07470959
27	0x3d841000	0.06448364
28	0x3df014be	0.11722706
29	0xbd1e818e	-0.03869777
30	0x3d95aa32	0.07307853
31	0x3da67cd0	0.08129275
32	0xbc1ac610	-0.009446636
33	0x3db6e72d	0.08930812
34	0xbd114cce	-0.035473637
35	0x3d0ae96c	0.033914015
36	0xbbb1ca0b	-0.0054256967
37	0xbd17e43e	-0.037082903
38	0x3bbd14c0	0.005770296
39	0xbddc584c	-0.10759029
40	0xbabbe180	-0.0014334172
41	0x3d521e98	0.051298708
42	0x3dcff69a	0.101544574
43	0x3ddbc95f	0.10731768
44	0xbabbd480	-0.0014330298
45	0xbd71df24	-0.059050694
46	0x3d014c34	0.031566814
47	0xbdc00bc6	-0.093772456
48	0x3de025a1	0.10944677
49	0x3d7bf7d4	0.061515644
50	0xbd7ece20	-0.062208295
51	0x3dd83dd5	0.105586685
52	0xbba92420	-0.005161777
53	0x3d35996c	0.044335768
54	0xbd98fa60	-0.0746963
55	0x3d7f9504	0.06239797
56	0xbc78dff0	-0.01519011
57	0xbaf7643a	-0.0018874474
58	0xbd895bba	-0.067069486
59	0x3ccd2e18	0.025046393
60	0xbc77bd61	-0.015120835
61	0x3d150cab	0.036389034
62	0x3c835b8d	0.016034866
63	0xbe067d93	-0.1313384
64	0xbcda6a5d	-0.026662046
65	0xbe0ed783	-0.13949399
66	0x3df2ba1e	0.11851905
67	0xbe7bea40	-0.24601078
68	0xbd8c4c2e	-0.068504676
69	0xbb2c98e4	-0.0026336247
70	0xbc73bc48	-0.014876433
71	0x3e3a1a2c	0.18174046
72	0x3e0dce8c	0.13848323
73	0xbcccba1b	-0.024991086
74	0xbd5cd7c0	-0.053916693
75	0xbe12a88b	-0.14322107
76	0xbdee67a6	-0.11640863
77	0x3c64f1f2	0.0139737
78	0xbc3f6314	-0.011681337
79	0xbe1bdb56	-0.15220389
80	0xbd2233df	-0.03960025
81	0xbe8e89f1	-0.27839616
82	0x3e0ac534	0.1355179
83	0xbd368aa0	-0.044565797
84	0x3c0ad079	0.008472555
85	0xbdbf0bdf	-0.09328436
86	0x3ca9c912	0.02072576
87	0x3db7fddd	0.089839675
88	0xbdc834a9	-0.09775669
89	0x3c968687	0.018374695
90	0x3e0f4a25	0.13993128
91	0x3cb2cb78	0.021825537
92	0x3e13b0dd	0.14422937
93	0xbe41c2a4	-0.18921906
94	0x3d58618c	0.052827403
95	0xbe99b81d	-0.3002328
96	0x3edb11ff	0.42787167
97	0xbe9263c3	-0.28591737
98	0xbe4b487d	-0.19851871
99	0xbe4d7f79	-0.20068158
100	0x3e3be065	0.18347318
101	0xbc7815ae	-0.015141888
102	0xbd03fad7	-0.03222164
103	0xbe062632	-0.13100508
104	0x3e729d3c	0.23692793
105	0xbdd4d8b1	-0.10392893
106	0xbeb674ee	-0.35636085
107	0xbe97bcab	-0.2963613
108	0xbe8845c8	-0.2661574
109	0xbe9d5fe9	-0.30737236
110	0x3ec811ea	0.39076167
111	0xbe07e3e5	-0.13270529
112	0xbcd4cf50	-0.02597776
113	0x3c949dec	0.01814171
114	0xbe32c981	-0.1745968
115	0x3dbc4730	0.091932654
116	0xbed43908	-0.4144976
117	0xbe224db7	-0.15849958
118	0xbdfe683c	-0.12422225
119	0x3da33fe7	0.07971173
120	0xbde4bbe4	-0.1116865
121	0x3d9a638b	0.075385176
122	0xbd982cfd	-0.07430456
123	0xbe7b9918	-0.2457012
124	0xbd0ba9d7	-0.03409752
125	0x3da4c655	0.08045641
126	0x3d8d2200	0.068912506
127	0xbcb3272b	-0.021869263
128	0x3e0657c8	0.13119423
129	0x3e192bd6	0.14958128
130	0x3e4701f8	0.19434345
131	0x3e291675	0.16512473
132	0xbe063d8f	-0.1310942
133	0xbdbeaf3b	-0.09310766
134	0x3df471ba	0.11935754
135	0x3e278d7c	0.16362566
136	0x3e58d09f	0.21173333
137	0xbe6e67b3	-0.23281746
138	0x3e0c14a8	0.13679755
139	0x3c993100	0.018700123
140	0x3c8bda17	0.017071767
141	0xbce3c6d2	-0.027804766
142	0xbc118ef2	-0.0088841785
143	0xbcaa6edf	-0.02080482
144	0x3b829b03	0.003985764
145	0x3c88d622	0.016703669
146	0xba35fe29	-0.0006942475
147	0x3cce4dee	0.025183644
148	0xbdf7e98e	-0.12105094
149	0x3e8938c9	0.26801136
150	0xbca83c5c	-0.020536594
151	0x3acfbc0c	0.0015848889
152	0x3e003a65	0.12522276
153	0x3d5c986c	0.0538563
154	0xbd92aa42	-0.0716138
155	0x3c49b979	0.0123122865
156	0x3e1b055a	0.1513876
157	0x3a54332b	0.0008094783
158	0xbe143f73	-0.14477329
159	0x3e0019c8	0.12509835
160	0xbe76a225	-0.2408529
161	0x3dec501f	0.115387194
162	0x3eaa5e2c	0.33274972
163	0x3e12088e	0.14261076
164	0xbd9b2a0f	-0.075763814
165	0xbabb29d4	-0.0014279434
166	0x3e527191	0.20551135
167	0x3e3be8a0	0.18350458
168	0x3d12d408	0.03584674
169	0x3e4855dc	0.19564003
170	0x3e65e80d	0.22451802
171	0x3e10e2a9	0.14148964
172	0x3d048c72	0.0323605
173	0x3e474aaa	0.19462076
174	0xbe957c8c	-0.29196584
175	0x3e65d382	0.22443965
176	0xbcd143cf	-0.025545029
177	0xbcab0d72	-0.020880435
178	0x3e2c9abf	0.16855906
179	0x3e66768f	0.22506164
180	0x3df3723c	0.11887023
181	0x3e069eed	0.13146563
182	0xbd0c54d1	-0.034260575
183	0xbe8a0eff	-0.26964566
184	0x3e410579	0.18849744
185	0x3e33826e	0.17530224
186	0x3db89740	0.09013224
187	0x3df554f6	0.11979096
188	0xbd121dd7	-0.03567299
189	0x3d235d53	0.039883923
190	0x3e83ae65	0.2571899
191	0x393984b2	0.00017692408
192	0x3e254fc1	0.16143705
193	0x3e486647	0.19570266
194	0xbcd030c3	-0.025413876
195	0xbce004ef	-0.027346103
196	0xbca5b742	-0.020228986
197	0xbd4af82e	-0.04955309
198	0x3db18e67	0.08669739
199	0xbd1fb0ce	-0.038986973
200	0x3cdb2530	0.02675113
201	0xbec12921	-0.3772669
202	0xbc14af76	-0.009075036
203	0x3d9e15d4	0.07719007
204	0x3bde9b45	0.006793412
205	0xbc166a37	-0.009180597
206	0x3c806776	0.015674334
207	0xbd49f95d	-0.049310077
208	0x3e0f6461	0.14003135
209	0x3e7e3bc6	0.2482749
210	0x3d1486a1	0.036261205
211	0xbda39d59	-0.07988996
212	0x3d84e292	0.06488527
213	0x3da30030	0.0795902
214	0xbde80e66	-0.11330871
215	0xbd94f2b1	-0.07272852
216	0x3e5d8193	0.2163146
217	0xbde93fe2	-0.11389138
218	0x3dcb7b15	0.099355854
219	0x3ce49582	0.027903322
220	0xbe135382	-0.14387324
221	0x3e819ecf	0.25316474
222	0x3dd37117	0.103243046
223	0x3e82cbaa	0.25546008
224	0xbea1c432	-0.31594998
225	0x3dd51e95	0.10406224
226	0x3e4e1d07	0.2012826
227	0x382c4918	4.107607e-05
228	0xbcfcb0d5	-0.030846039
229	0xbb9673af	-0.0045914273
230	0x3d826b6f	0.063681476
231	0x3e285ac4	0.16440874
232	0xbdb45e5e	-0.088070616
233	0x3da4a376	0.0803899
234	0x3eb48976	0.35261124
235	0x3db2a08e	0.087220296
236	0x3dd9e051	0.10638488
237	0x3e955e2d	0.29173413
238	0xbe85f6a9	-0.2616475
239	0x3df5f02d	0.120087005
240	0x3cad8563	0.021181768
241	0xbe0de3e8	-0.1385647
242	0x3e217fbb	0.15771382
243	0x3e20c7e6	0.15701255
244	0x3d7486d5	0.0596989
245	0xbdaede4a	-0.08538492
246	0x3e3323a8	0.1749407
247	0xbe9061f5	-0.28199735
248	0x3e786f50	0.24261212
249	0xbe3deea2	-0.18548062
250	0x3e8cd964	0.27509606
251	0x3e810758	0.25200915
252	0x3e01eb79	0.12687482
253	0x3c7c1753	0.01538642
254	0x3c8d2960	0.017231643
255	0x3e553046	0.20819196

fc2.bias f4 [64]
0	0xbd7c3f38	-0.061583728
1	0x3d23c120	0.0399791
2	0xbd5aead3	-0.053446602
3	0x3c2e6e77	0.010646454
4	0x3d987728	0.07444602
5	0xbdaef03c	-0.08541915
6	0x3d8e7687	0.06956201
7	0x3d28ac44	0.04117991
8	0xbdf7df0c	-0.1210309
9	0xbdf76568	-0.120798886
10	0x3d768a89	0.06019071
11	0x3d60d43e	0.05488991
12	0x3d3b63c2	0.045749433
13	0x3d2a4e20	0.041578412
14	0x3bb8bbea	0.0056376355
15	0x3d0da348	0.034579545
16	0xbd1e8d0a	-0.038708724
17	0x3d9c7b7a	0.07640739
18	0xbd56428a	-0.05230955
19	0x3dbe982f	0.093063705
20	0x3d751448	0.059833795
21	0xbda3735e	-0.07980989
22	0x3d89ea6a	0.06734164
23	0xbdc30b5c	-0.09523651
24	0x3d096667	0.033544924
25	0x3bcb1ee9	0.006198753
26	0xbdf61005	-0.12014774
27	0xbd5121cc	-0.05105762
28	0x3cc9b510	0.02462247
29	0x3d2fa39b	0.042880636
30	0xbdf35872	-0.11882104
31	0x3dd92fca	0.10604818
32	0xbb28756a	-0.002570475
33	0xbd1e6c25	-0.038677353
34	0xbdd2deb0	-0.102963805
35	0x3e05325e	0.13007495
36	0xbd41636a	-0.04721395
37	0x3d9ab5db	0.075542174
38	0xbd32782c	-0.043571636
39	0x3da5f37c	0.081030816
40	0x3dcf5deb	0.10125335
41	0x3d2eae6d	0.042646814
42	0x3be120ca	0.006870364
43	0x3d8cceec	0.06875405
44	0x3bff5e4b	0.007793223
45	0x3dba9581	0.09110547
46	0x3dd3c5e6	0.103404805
47	0x3d620d0a	0.055188216
48	0x3b9b968c	0.004748171
49	0xbd9692d8	-0.07352227
50	0x3b920680	0.0044563413
51	0xbdb2cbfc	-0.08730313
52	0xbd9be0dc	-0.07611248
53	0xb97297fe	-0.0002313554
54	0xbda37793	-0.07981791
55	0xbd9ed676	-0.07755749
56	0x3d37f6aa	0.04491297
57	0x3ceb9062	0.02875537
58	0xbdc453b2	-0.09586276
59	0x3bfc42ec	0.0076984074
60	0x3cfc34c0	0.030786872
61	0xbd8885bb	-0.06666132
62	0xbd216038	-0.039398402
63	0xbd90615e	-0.07049821

fc3.weight f4 [64, 64]
0	0xbe0c0c63	-0.136766
1	0xbd9d1d44	-0.076715976
2	0x3e2ff44d	0.17183037
3	0x3dad708f	0.084687345
4	0xbce53114	-0.027977504
5	0xbdfc3628	-0.12315017
6	0xbe3e0c92	-0.18559483
7	0x3b1e8220	0.0024186447
8	0x3baa97a0	0.0052060634
9	0xbd6de9a4	-0.058084145
10	0x3c96f48f	0.018427161
11	0xbec0d516	-0.37662572
12	0xbe9f88ea	-0.31159145
13	0x3d97f75d	0.07420228
14	0xbdc4eefe	-0.09615897
15	0xbda6c91e	-0.08143829
16	0x3d562def	0.0522899
17	0x3e3e35d0	0.18575215
18	0xbde8287a	-0.11335845
19	0x3e0efe80	0.13964272
20	0xbddbca87	-0.107319884
21	0x3df5335c	0.11972687
22	0xbdb1716d	-0.086642124
23	0xbd959018	-0.07302874
24	0xbdcfca16	-0.10145967
25	0xbd7bdf28	-0.061492115
26	0x3d60d06f	0.054886278
27	0xbc71e625	-0.014764343
28	0x3e2727f1	0.1632383
29	0xbeabdfd9	-0.3356922
30	0x3cb1c2e0	0.021699369
31	0x3d97bf20	0.07409501
32	0xbe9e7cc2	-0.30954558
33	0xbdfbfad7	-0.12303703
34	0xbdef6944	-0.1169
35	0x3e184f36	0.14873967
36	0xbe22f68e	-0.15914366
37	0x3cd8cc90	0.02646473
38	0xbda61e3a	-0.08111234
39	0x3daf610d	0.08563433
40	0x3d9c5060	0.07632518
41	0xbddd927c	-0.10818955
42	0x3d83a032	0.06427039
43	0x3d7e7efc	0.06213282
44	0x3e50d43f	0.20393465
45	0x3e25e79f	0.16201638
46	0xbe293bb6	-0.16526684
47	0xbe629ec9	-0.22130884
48	0xbdccc077	-0.09997647
49	0x3cb7a630	0.022418112
50	0x3e13a849	0.14419664
51	0xbd419e28	-0.04726997
52	0xbcbf9e58	-0.023390934
53	0xbca385cf	-0.019961266
54	0xbdd68efd	-0.104764916
55	0x3daed5e4	0.0853689
56	0x3db4eb93	0.08833995
57	0xbda1c3fe	-0.07898711
58	0x3d4ae8d4	0.04953845
59	0x3dcd6be9	0.10030348
60	0x3e9dc7c7	0.3081648
61	0xbd1e5137	-0.03865167
62	0x3debfaa8	0.11522418
63	0xbcf88c8a	-0.030340452
64	0xbd0a5958	-0.03377661
65	0x3e88a4e0	0.2668829
66	0xbe2aa3ee	-0.16664097
67	0xbdb69d53	-0.08916726
68	0xbd557551	-0.052113835
69	0x3d85bc24	0.065300256
70	0x3e27e474	0.16395742
71	0xbb152f75	-0.0022763882
72	0xbda0349e	-0.07822536
73	0xbd5b1ed4	-0.053496197
74	0x3e4e24c1	0.20131208
75	0xbefa000e	-0.48828167
76	0xbe9e94f8	-0.3097303
77	0xbe52edea	-0.2059857
78	0x3cd47a82	0.025937323
79	0xbe9823b2	-0.29714733
80	0xbcee7b08	-0.0291114
81	0x3e94fc2a	0.29098636
82	0x3d6bd8bc	0.05757974
83	0xbd135845	-0.035972852
84	0xbe756c09	-0.23966993
85	0xbd825280	-0.06363392
86	0x3d30b932	0.043145366
87	0xbdfd6c88	-0.12374216
88	0x3d2c6cc4	0.042095914
89	0xbe870d7d	-0.26377478
90	0x3df99ad0	0.12187731
91	0xbdbfb210	-0.093601346
92	0x3e8c37d3	0.2738634
93	0xbea5f9ab	-0.32417044
94	0x3dfc3f58	0.12316769
95	0x3d84ff21	0.064939745
96	0xbe93d964	-0.28876793
97	0xbe4f3bde	-0.20237681
98	0xbc432480	-0.011910558
99	0x3df341e7	0.11877804
100	0xbecb1dfc	-0.39671314
101	0x3e495097	0.19659649
102	0x3d4033a8	0.046924263
103	0x3dccc5d5	0.09998671
104	0x3d0812cc	0.03322105
105	0xbecb332c	-0.3968748
106	0xbd78b770	-0.060721815
107	0xbd38da79	-0.045130227
108	0x3e5fcaab	0.21854655
109	0x3e385180	0.1799984
110	0xbe4bfdc7	-0.19921027
111	0xbf042482	-0.51618207
112	0xbe790502	-0.24318317
113	0x3d221368	0.03956929
114	0xbddafb91	-0.10692514
115	0x3db2fc4c	0.08739528
116	0x3db172f2	0.08664502
117	0xbe42d4a7	-0.19026433
118	0x3d7f7fa4	0.062377587
119	0x3b9d9120	0.00480856
120	0xbe043dc7	-0.12914191
121	0xbde7dc0e	-0.11321269
122	0x3da77c70	0.081780314
123	0xbec8accc	-0.39194334
124	0x3edebca0	0.43503284
125	0xbd2811f1	-0.041032735
126	0x3df7e3f8	0.121040285
127	0x3de63212	0.11240019
128	0x3cb620a0	0.022232354
129	0x3e269665	0.16268308
130	0xbe9bcf2b	-0.30431494
131	0xbeb46811	-0.35235646
132	0x3ca8ddab	0.020613512
133	0x3d8ee5be	0.069774136
134	0x3e251ede	0.16125056
135	0x3dc60c94	0.09670368
136	0x3d264ad4	0.040598705
137	0x3dc21168	0.09475976
138	0x3ea41f0a	0.3205493
139	0x3ea000e7	0.31250688
140	0x3e426c8b	0.18986718
141	0xbdd2750b	-0.102762304
142	0x3e1038cc	0.14084166
143	0xbe15690b	-0.14590852
144	0xbdbe7fc8	-0.09301716
145	0x3e833281	0.2562447
146	0xbb8db577	-0.004324611
147	0xbe3a647c	-0.18202394
148	0xbd83704c	-0.06417903
149	0xbd1dcb80	-0.03852415
150	0x3e9b45f5	0.3032681
151	0xbccdbfc0	-0.025115848
152	0x3e0adf54	0.13561755
153	0xbe8626f2	-0.26201588
154	0xbc924d40	-0.017859101
155	0x3d5eff38	0.054442614
156	0x3ea83e97	0.32860252
157	0x3e715b8d	0.2357008
158	0xbc4fee60	-0.01269111
159	0xbdc8551a	-0.09781857
160	0x3e381df9	0.17980184
161	0x3d7044c3	0.058659326
162	0x3d8486e8	0.06471044
163	0x3b77c79d	0.0037808188
164	0x3db8c608	0.090221465
165	0xbd7b37f1	-0.061332647
166	0xbdef267a	-0.11677261
167	0x3e140084	0.14453322
168	0xbcab832b	-0.02093657
169	0xbe83ceea	-0.257438
170	0xbdc7bdfb	-0.09753033
171	0x3e1219d3	0.14267664
172	0xbc80ee5c	-0.015738659
173	0x3d91fc33	0.07128181
174	0x3e6fb113	0.23407392
175	0x3e4877ef	0.19577001
176	0xbe4336b2	-0.19063833
177	0x3dd35dec	0.103206486
178	0xbe2e5e76	-0.17028221
179	0x3db74834	0.089493185
180	0x3d072a40	0.032999277
181	0xbd7c4797	-0.06159171
182	0x3b6a7540	0.0035775453
183	0xbde27014	-0.110565335
184	0xbe85028b	-0.25978503
185	0x3e3eb253	0.18622713
186	0xbd7abd48	-0.06121567
187	0xbe2769fb	-0.16349022
188	0x3d9a7548	0.07541901
189	0xbdd28dce	-0.10280953
190	0xbdac946a	-0.08426745
191	0xbd7e2c08	-0.06205371
192	0x3dfa0404	0.12207797
193	0x3d110f44	0.03541495
194	0xbdb85d50	-0.09002173
195	0x3d566558	0.052342743
196	0x3cbcce64	0.023047633
197	0xbdf0fcc8	-0.11766964
198	0xbd6a257a	-0.057164647
199	0xbda56d8a	-0.080775335
200	0x3bbcc1c0	0.0057604015
201	0x3d42e0a0	0.0475775
202	0x3da24f2e	0.079252586
203	0xbc80954f	-0.015696196
204	0x3dd6e926	0.10493688
205	0xbcfcb090	-0.03084591
206	0xbdf1ef82	-0.118132606
207	0xbd6da88f	-0.058022078
208	0x3d4c4c54	0.04987748
209	0xbd8ea9de	-0.06965993
210	0xbd045174	-0.032304242
211	0x3d5c7b01	0.053828243
212	0x3dd8fb9e	0.10594867
213	0xbdaceb22	-0.084432855
214	0xbddf10a9	-0.108918495
215	0xbdf4bebe	-0.11950444
216	0x3c8166d6	0.015796106
217	0xbd8db2a4	-0.069188386
218	0xbd9507a2	-0.072768465
219	0x3d5b0560	0.053471923
220	0x3d530ab4	0.05152388
221	0x3dcdd8a6	0.10051088
222	0xbdfa88d0	-0.12233126
223	0xbdf87a46	-0.12132697
224	0xbdcb7691	-0.09934724
225	0xbdb65568	-0.08903009
226	0xbd08dc38	-0.033413142
227	0x3d3a8fc7	0.045547273
228	0xbc05713b	-0.008144672
229	0xbd6b2344	-0.05740668
230	0xbd506618	-0.050878614
231	0xbd98394d	-0.07432804
232	0xbd7e560c	-0.06209378
233	0xbd609db2	-0.05483789
234	0xbd30df6c	-0.04318182
235	0xbd5f5276	-0.054522
236	0xbc362d35	-0.011119177
237	0xbd1129c6	-0.03544023
238	0x389eaacd	7.565841e-05
239	0x3d3747bb	0.044746142
240	0xbb262fda	-0.0025358112
241	0xbbccb4c0	-0.006247133
242	0x3dbec426	0.09314756
243	0x3d2be108	0.041962653
244	0xbc0df320	-0.008663923
245	0x3db1308a	0.08651836
246	0xbd7eba58	-0.06218943
247	0x3da6ed14	0.08150688
248	0xbca96e48	-0.020682469
249	0x3d7aafa5	0.061202664
250	0x3c83f080	0.01610589
251	0x3d8c4a2c	0.06850085
252	0x3dc5d6d2	0.09660114
253	0xbbaf2080	-0.0053444505
254	0x3dc20a56	0.09474628
255	0xbd896736	-0.06709139

fc3.bias f4 [64]
0	0xbb180c53	-0.0023200705
1	0x3d4d43a9	0.050113354
2	0x3d0f69ef	0.035013136
3	0xbdb2145e	-0.08695291
4	0xbcdf4c4e	-0.027258065
5	0x3d08d244	0.03340365
6	0x3c8327ee	0.01601025
7	0xbdb4536a	-0.088049725
8	0xbb03c7d6	-0.0020108125
9	0x3c0f6cd8	0.008753978
10	0x3cbbeeac	0.022940956
11	0x3cadfe34	0.021239378
12	0xbd86e002	-0.06585695
13	0xbdadad58	-0.08480328
14	0xbd55b0b4	-0.05217047
15	0xbdf0acb4	-0.117516905
16	0xbdfe44cc	-0.12415466
17	0x3dee8db1	0.11648119
18	0x3d9b9f8a	0.07598789
19	0xbd3ea35c	-0.04654251
20	0xbd3aa418	-0.04556665
21	0x3d18a2a1	0.03726447
22	0x3da4506b	0.08023151
23	0xbd98b753	-0.07456841
24	0xbdd03d76	-0.10167973
25	0xbd197eac	-0.03747432
26	0xbd3b4120	-0.045716405
27	0xbcf629f1	-0.030049296
28	0xbccad39c	-0.024759106
29	0x3d64db6b	0.055873316
30	0x3c9dd5eb	0.019267043
31	0xbcb97797	-0.022640033
32	0x3da2fe0c	0.07958612
33	0x3df1bb71	0.1180333
34	0xbd3ac63a	-0.0455992
35	0xbd5e4568	-0.05426541
36	0xbc8a1e5c	-0.01686018
37	0xbd992420	-0.074775934
38	0x3d88012d	0.06640849
39	0xbdb5f830	-0.08885229
40	0x3cc76e02	0.024344448
41	0x3d0d1d6c	0.034451887
42	0x3dbc51b6	0.091952726
43	0x3d818ad9	0.06325311
44	0xbd580616	-0.05274018
45	0xbdca442a	-0.098762825
46	0xbddf056b	-0.10889705
47	0xbc928ffc	-0.017890923
48	0x3d9157ee	0.070968494
49	0x3dd02717	0.10163706
50	0xbd23b200	-0.039964676
51	0x3a9d6ff8	0.0012011519
52	0x3e0637a0	0.13107157
53	0xbcbec603	-0.023287779
54	0xbdbfdf68	-0.09368783
55	0x3da9f3ef	0.0829848
56	0xbde0bf22	-0.10973956
57	0xbcb152b4	-0.021645881
58	0x3d99c1b9	0.07507653
59	0x3bd7ea3b	0.0065892017
60	0xbc77af13	-0.015117425
61	0x3daad334	0.08341065
62	0x3ba291b3	0.0049612164
63	0xbdd49b09	-0.10381133

fc4.weight f4 [7, 64]
0	0xbc1163f1	-0.008873926
1	0xbd9b4a58	-0.07582539
2	0xbda758fe	-0.08171271
3	0x3e00e17e	0.12586018
4	0xbd92ad3e	-0.071619496
5	0x3d06f31b	0.032946687
6	0xbddb101b	-0.10696431
7	0x3e26d821	0.16293384
8	0x3c07e7fd	0.008295056
9	0x3d214b55	0.039378483
10	0xbdacaf8a	-0.08431919
11	0xbbab7e71	-0.005233579
12	0x39de1874	0.0004236136
13	0x3d9978a2	0.07493712
14	0xbd94bfd6	-0.07263152
15	0xbdd54cf2	-0.10415067
16	0x3d2f0790	0.04273182
17	0xbca837f9	-0.020534502
18	0x3cd7b021	0.026329102
19	0x3c15bc40	0.009139121
20	0x3daa675c	0.083204955
21	0xbd9014ce	-0.07035218
22	0xbe0018ed	-0.12509508
23	0xb98babb0	-0.00026640063
24	0x3dab7738	0.083723485
25	0x3da22ef0	0.07919109
26	0x3d8e5b6a	0.069510296
27	0xbcbfd0c6	-0.02341498
28	0xbd971608	-0.07377249
29	0xbd0e6851	-0.034767453
30	0x3d84a8bc	0.06477496
31	0x3dd3f755	0.10349909
32	0x3dd4da7f	0.10393237
33	0xbe15fac3	-0.14646439
34	0x3d4edea8	0.05050531
35	0xbddf0756	-0.10890071
36	0x3dc4f648	0.09617287
37	0x3db8253a	0.089914754
38	0x3d257ab7	0.040400233
39	0x3e06ce71	0.13164689
40	0x3db0e78b	0.08637913
41	0x3d4d76ba	0.050162055
42	0xbc68c430	-0.014206931
43	0xbd560980	-0.052255154
44	0xbcb61109	-0.02222492
45	0x3d2165b4	0.039403632
46	0x3d0d4f5b	0.034499507
47	0x3de3ed6c	0.11129269
48	0x3c83a8b4	0.016071655
49	0xbcc6122e	-0.02417859
50	0x3d768109	0.06018165
51	0xbe0b0552	-0.13576248
52	0xbe09a4e7	-0.13441812
53	0x3d514626	0.05109229
54	0xbdc6e198	-0.09710997
55	0xbe401fd9	-0.18762149
56	0x3cdcec10	0.026968032
57	0x3d5ac5fb	0.053411465
58	0x3d7a4fca	0.06111125
59	0xbd8088bc	-0.0627608
60	0xbb4eecf4	-0.003157434
61	0x3c261ea7	0.010139144
62	0xbd7f5e14	-0.06234558
63	0xbdc4fef2	-0.096189395
64	0xbdc7314d	-0.097262
65	0xbd3ac8ee	-0.045601778
66	0xbc3720ef	-0.011177286
67	0xbd401a18	-0.046899885
68	0xbddcfdb8	-0.107905805
69	0x3d82f3e7	0.06394177
70	0xbdf890cf	-0.12136995
71	0x3df9a68c	0.121899694
72	0x3e1d54bc	0.15364355
73	0x3daee988	0.08540636
74	0x3e6a7731	0.2289703
75	0x3b0e3961	0.002170168
76	0xbd697a03	-0.057001125
77	0xbccaada0	-0.024740994
78	0xbdc838d6	-0.097764656
79	0x3d9b95f0	0.07596958
80	0xbc2a7db0	-0.010405943
81	0xbdd9f7d5	-0.10642973
82	0x3db31af5	0.08745376
83	0x3c9aad80	0.01888156
84	0x3cf0dcea	0.029402215
85	0x3d70c042	0.0587771
86	0x3e16bb03	0.14719777
87	0x3dae360c	0.085064024
88	0xbce3a538	-0.027788743
89	0xbdf3a3ca	-0.11896475
90	0x3d175f92	0.036956377
91	0x3dc7ac48	0.09749657
92	0x3dadf09f	0.084931605
93	0x3c2c00e0	0.0104982555
94	0x3d76f144	0.060288683
95	0x3d92f978	0.07176489
96	0xbda80d22	-0.0820563
97	0xbe1a9aaf	-0.1509807
98	0x3dcfc355	0.101446785
99	0x3c9475f0	0.018122643
100	0xbd8d2fbd	-0.06893871
101	0xbd5d5f68	-0.054046065
102	0xbe52a380	-0.20570183
103	0xbd5bb1a4	-0.05363621
104	0x3da06e2c	0.078335136
105	0x3e3e60f0	0.18591666
106	0x3d69282d	0.05692308
107	0x3c11fb0e	0.008909954
108	0xbe9fb652	-0.31193787
109	0xbd9061a8	-0.070498765
110	0xbc87267c	-0.016497843
111	0xbded92cf	-0.11600267
112	0xbe61626d	-0.22010203
113	0x3e10b9d0	0.14133382
114	0xbd47b6cc	-0.048758313
115	0xbe091a22	-0.13388875
116	0x3e0d7b3f	0.13816546
117	0xbc59ffa2	-0.0133055765
118	0xbd8f8ee6	-0.070096776
119	0xbdf6b2bc	-0.120458096
120	0x3cb39510	0.021921664
121	0xbd5e46ad	-0.05426662
122	0x3df0d91e	0.11760162
123	0xbe3e10fe	-0.1856117
124	0xbe2cc88f	-0.16873382
125	0x3e090c38	0.13383567
126	0xbd5bd59a	-0.053670503
127	0x3de0f79a	0.10984726
128	0x3d97fe7a	0.074215844
129	0xbdae609a	-0.08514519
130	0x3f1d222d	0.61380273
131	0xbd641a6a	-0.055689253
132	0x3e64402e	0.22290108
133	0x3e003574	0.12520391
134	0xbdf94c7f	-0.121727936
135	0xbd9b6351	-0.075873025
136	0x3d2c41b1	0.042054836
137	0x3d02eb41	0.031962637
138	0xbe19e48a	-0.15028587
139	0x3d038e13	0.032117914
140	0x3c700920	0.014650613
141	0xbc0dbb50	-0.008650616
142	0xbdaac488	-0.083382666
143	0x3d0928d8	0.033486217
144	0x3da797f8	0.081832826
145	0xbd88bd34	-0.06676713
146	0xbb2be91f	-0.002623148
147	0x3d30923c	0.04310821
148	0xbdd02f9d	-0.101653315
149	0xbd8dd58d	-0.06925497
150	0x3d82ce21	0.06386972
151	0xbd9be1c8	-0.07611424
152	0xbceab360	-0.028649986
153	0x3da96e38	0.08272976
154	0xbe3439b4	-0.17600137
155	0x3df03470	0.11728752
156	0xbd17605f	-0.03695714
157	0x3de10b05	0.1098843
158	0xbd00a0bb	-0.031403285
159	0xbdb77088	-0.089570105
160	0xbe62f1de	-0.22162578
161	0xbdd619c2	-0.10454132
162	0xbd85a9f0	-0.06526554
163	0x3afbe100	0.0019216835
164	0xbdb17e7e	-0.086667046
165	0x3d497764	0.049186125
166	0x3cef40b4	0.029205658
167	0x3b09526e	0.0020953673
168	0xbe65a103	-0.22424702
169	0x3e279b69	0.16367878
170	0x3d84196d	0.06450162
171	0x3de76cf3	0.11300077
172	0x3eccbbab	0.3998693
173	0xbcc393d4	-0.0238742
174	0xbd99a4b3	-0.07502117
175	0xbd75006b	-0.05981485
176	0xbd32dce8	-0.043667704
177	0xbe692ac5	-0.22770222
178	0x3d85f631	0.06541098
179	0x3d5134b4	0.051075652
180	0x3cac67ca	0.021045584
181	0x3d4c367f	0.04985666
182	0xbd8e74a4	-0.06955841
183	0x3dbb163c	0.091351
184	0xbcebfe08	-0.028807655
185	0xbd6e6328	-0.05820003
186	0x3d7ff773	0.062491845
187	0xbe4307f4	-0.19046003
188	0x3cde72a3	0.027154272
189	0xbe8f225e	-0.27955908
190	0x3d889b68	0.066702664
191	0x3db13fa9	0.0865472
192	0x3e416bd0	0.18888783
193	0x3f06c82f	0.52649206
194	0xbd8447fe	-0.06459044
195	0xbc93fd21	-0.018065037
196	0xbe3a7545	-0.18208797
197	0xbe843851	-0.25824216
198	0xbceb3b19	-0.028714703
199	0x3e940d4b	0.28916392
200	0xbe24fb63	-0.16111521
201	0x3d4958f9	0.049157117
202	0xbddb56e3	-0.10709932
203	0xbda0e294	-0.07855716
204	0xbd17c678	-0.03705451
205	0xbb6d6980	-0.0036226213
206	0x3dd3e868	0.10347062
207	0x3d55f59c	0.052236184
208	0x3d9194a2	0.071084276
209	0x3de8d0f6	0.11367981
210	0x3bc76860	0.0060854405
211	0x3d94ddae	0.072688445
212	0xbe71dd45	-0.23619564
213	0x3ee37076	0.44421738
214	0xbde19a04	-0.11015704
215	0x3c3cd298	0.011524819
216	0xbc6b3b90	-0.0143574625
217	0x3d9738e4	0.07383898
218	0x3ee000bd	0.43750563
219	0xbdb5ed43	-0.08883145
220	0x3dd5038d	0.10401068
221	0x3cc58978	0.024113402
222	0xbc5ea938	-0.01359015
223	0x3d6076e7	0.054800894
224	0x3dd6b76c	0.10484204
225	0x3db5f1ba	0.08883996
226	0x3c720169	0.014770844
227	0x3cdbfac8	0.02685298
228	0xbdee045f	-0.116219275
229	0xbdb042c6	-0.08606486
230	0x3c359083	0.011081818
231	0x3da34e16	0.07973878
232	0x3c5e7010	0.0135765225
233	0x3cc55cfc	0.02409219
234	0x3c78dafa	0.015188927
235	0xbd8bbb4a	-0.06822832
236	0x3d0e4fd5	0.034744103
237	0x3c68e9de	0.0142159145
238	0x3d2edcb7	0.04269096
239	0x3c54eadf	0.012995451
240	0x3e8146e7	0.25249407
241	0x3d224e57	0.039625492
242	0x3d9d2ed8	0.0767495
243	0xbdd6a863	-0.10481336
244	0x3d2a0ca5	0.041515965
245	0x3cd503a3	0.02600271
246	0xbceba388	-0.028764501
247	0x3baa9bd2	0.0052065635
248	0xbc640b90	-0.013918772
249	0x3acffe4a	0.0015868631
250	0xbe13af76	-0.14422402
251	0xbea49739	-0.32146624
252	0xbc1096c7	-0.008825011
253	0x3d4268e6	0.04746332
254	0x3da44d32	0.08022536
255	0xbd73e97a	-0.059548832

fc4.bias f4 [7]
0	0x3d8e4279	0.069462724
1	0x3cb6473c	0.022250764
2	0x3d3b8468	0.04578057
3	0x3d6f9a71	0.058496896
4	0x3d2d06b9	0.04224274
5	0x3dd3f255	0.103489555
6	0x3b90c985	0.0044185543
